PetApp/app/src/main/ml/lstm_model.tflite (tflite, 806032 bytes, 20 tensors)

sequential_2/dense_5/MatMul f4 [5, 128]
0	0x3e74d70e	0.23910162
1	0x3e2fda0e	0.17173025
2	0x3e8d9735	0.27654424
3	0x3e6d2b24	0.23160988
4	0x3e00bd03	0.12572102
5	0x3dbd180f	0.092331044
6	0xbda98cd8	-0.08278817
7	0x3d342a5a	0.043985702
8	0x3ea4f7f3	0.3222042
9	0x3e23fe4e	0.16014978
10	0xbe8aef04	-0.2713548
11	0xbd371caa	-0.04470507
12	0x3dfe7068	0.124237835
13	0x3dfdaf9d	0.12387011
14	0xbe11419c	-0.14185184
15	0xbea5d04b	-0.32385477
16	0xbe0415f2	-0.12898996
17	0x3c46e9c4	0.012140695
18	0xbeb4383a	-0.35199147
19	0xbec964a4	-0.39334595
20	0xbcec8157	-0.028870268
21	0x3e620019	0.2207035
22	0xbe736f06	-0.23772821
23	0x3c65e260	0.014031023
24	0x3e673f9e	0.22582862
25	0xbece6051	-0.4030786
26	0xbdfa585f	-0.12223887
27	0xbeb13a78	-0.3461492
28	0xbe31b594	-0.17354423
29	0xbe8dd9c2	-0.277052
30	0xbc321999	-0.010870361
31	0x3e5cb4a3	0.21553282
32	0xbeafdd8c	-0.34348714
33	0x3e8faad5	0.28060022
34	0x3dcb8720	0.099378824
35	0xbd5e05c9	-0.054204736
36	0x3e42e02f	0.19030832
37	0xbdc07384	-0.09397033
38	0x3e688f22	0.22710851
39	0x3d7624b1	0.060093585
40	0x3e5b7914	0.21432906
41	0x3e73f02b	0.23822086
42	0xbea5142b	-0.3224195
43	0x3e86cc89	0.26327923
44	0xbe9b41ea	-0.30323726
45	0x3e64ddd1	0.22350241
46	0xbe8e9c9e	-0.27853864
47	0x3e125819	0.14291419
48	0xbea18abf	-0.31551167
49	0x3e2ece98	0.17070997
50	0x3e06241f	0.13099717
51	0x3d10a892	0.03531701
52	0x3e0be6e1	0.13662292
53	0xbe4a6dde	-0.19768474
54	0x3e53ba41	0.20676519
55	0x3e06bc16	0.13157687
56	0x3d26b333	0.04069824
57	0x3e41113b	0.18854229
58	0xbea371c9	-0.3192275
59	0x3e90435a	0.28176385
60	0xbe0f03a2	-0.1396623
61	0x3e85e2aa	0.26149493
62	0xbdf08ad6	-0.11745231
63	0x3e63188a	0.2217733
64	0xbd93a6a6	-0.0720952
65	0xbe2e0ae1	-0.16996337
66	0x3e3b2987	0.1827756
67	0xbec4165b	-0.38298306
68	0x3e87d601	0.2653046
69	0xbe359b35	-0.17734988
70	0x3e609dbd	0.21935172
71	0xbe3aabec	-0.18229645
72	0x3d591052	0.05299408
73	0x3c86036c	0.016359054
74	0x3ea419e0	0.3205099
75	0x3e5b5c4e	0.2142193
76	0x3d55e05a	0.05221591
77	0x3dec9924	0.11552647
78	0x3e23d958	0.16000879
79	0xbdd47fec	-0.10375962
80	0xbe86d876	-0.26337022
81	0xbe817167	-0.25281832
82	0xbe982f4a	-0.2972358
83	0xbc26bce9	-0.010176876
84	0x3c9db798	0.019252583
85	0xbd74055e	-0.05957543
86	0x3c00ab64	0.007853363
87	0x3e35f783	0.177702
88	0x3dbd22a6	0.09235124
89	0xbdeece4a	-0.1166044
90	0x3e8dc6f3	0.2769085
91	0xbe8861c9	-0.26637104
92	0xbe1c1492	-0.15242222
93	0xbd8f2e99	-0.0699131
94	0x3e8594e7	0.26090166
95	0x3d609e6d	0.054838587
96	0x3e2a8c1c	0.1665501
97	0xbe5e268d	-0.21694393
98	0x3e984f8a	0.29748183
99	0xbc5cb17c	-0.01347005
100	0xbea86dde	-0.32896322
101	0xbe8ba128	-0.2727139
102	0x3e520a10	0.20511651
103	0x3e3d78b6	0.18503079
104	0xbea691be	-0.32533067
105	0xbe7bb446	-0.24580488
106	0x3ce58301	0.02801657
107	0xbe5f8b6a	-0.21830526
108	0xbec35fa0	-0.38158894
109	0x3e95a269	0.29225472
110	0xbe2b8ae2	-0.16752198
111	0xbe649c2e	-0.22325203
112	0xbebb7ea2	-0.3662005
113	0x3d0964eb	0.03354351
114	0x3c6dc5f2	0.014512526
115	0x3dfded38	0.123987615
116	0x3e0980a3	0.13427977
117	0x3d4c3159	0.04985175
118	0x3e600891	0.21878268
119	0x3e0ef295	0.13959725
120	0x3c2bda40	0.010489047
121	0x3d74fdc5	0.059812326
122	0xbe36dbb8	-0.17857254
123	0x3e689c98	0.22715986
124	0x3d6483e9	0.05578986
125	0xbe4f07fc	-0.2021789
126	0xbe409934	-0.18808442
127	0xbe76caf2	-0.24100855
128	0x3e46849c	0.19386524
129	0xbe149800	-0.14511108
130	0x3df1f3a1	0.11814047
131	0x3e5e2911	0.21695353
132	0xbd309797	-0.043113317
133	0xbd3b82b5	-0.04577895
134	0xbd422bda	-0.0474051
135	0xbbacfe3d	-0.005279331
136	0xbea31388	-0.3185084
137	0xbe399775	-0.18124183
138	0xbca7d710	-0.020488292
139	0xbe1823e4	-0.14857441
140	0xbc30d674	-0.010793317
141	0x3e89738a	0.26845962
142	0x3e505009	0.20343031
143	0xbb736440	-0.003713861
144	0x3dbb892c	0.09157023
145	0x3e12fc84	0.1435414
146	0xbe851e34	-0.25999606
147	0x3e72a9ac	0.23697537
148	0x3e76d223	0.24103598
149	0xbe84f737	-0.2596986
150	0xbeb1fb5b	-0.34762082
151	0xbe38b655	-0.18038304
152	0xbded24c8	-0.11579281
153	0xbed1d136	-0.40979928
154	0x3e65c5f6	0.22438797
155	0x3db81bec	0.08989701
156	0x3e23fadd	0.16013665
157	0xbe273850	-0.16330075
158	0x3e24308c	0.16034144
159	0x3dd7aa96	0.105305836
160	0xbe4a2f7b	-0.19744675
161	0xbe82ffe1	-0.25585845
162	0x3e6e0274	0.23243123
163	0x3c442e45	0.011973922
164	0xbc63817f	-0.013885855
165	0x3e347ba1	0.17625286
166	0x3e749029	0.23883118
167	0x3e8af6db	0.2714146
168	0x3e874c39	0.2642534
169	0xbdb411ce	-0.087924585
170	0xbd03439a	-0.03204689
171	0x3ca84f8a	0.02054574
172	0xbd63e844	-0.055641428
173	0xbe577dd0	-0.21044087
174	0x3e90a961	0.28254226
175	0xbdeb3d3e	-0.114862904
176	0xbe61d15f	-0.22052525
177	0xbe82a39f	-0.25515458
178	0xbde2420b	-0.11047753
179	0x3d8a730a	0.06760223
180	0x3de462c6	0.11151652
181	0x3ea91013	0.33020076
182	0xbd7a9ed2	-0.06118662
183	0x3e1bf3b8	0.1522969
184	0x3e00d6b1	0.12581898
185	0xbc3da621	-0.011575253
186	0x3e56bf05	0.20971306
187	0xbe3697d7	-0.1783136
188	0x3e9370fc	0.28797138
189	0x3e6e75f5	0.23287185
190	0x3e5d0bde	0.21586558
191	0xbc7c1e49	-0.01538808
192	0xbe3ea76f	-0.18618558
193	0xbe08da8f	-0.13364623
194	0xbe413b9b	-0.18870394
195	0x3b2c7f64	0.0026321048
196	0xbe24962e	-0.16072914
197	0x3d9e5eae	0.077329025
198	0x3e0b2fa0	0.13592386
199	0x3e05d2e5	0.13068731
200	0xbe59420b	-0.212166
201	0xbe13e469	-0.144426
202	0xbd9178e4	-0.07103136
203	0xbe5e50b8	-0.2171048
204	0x3e217023	0.15765433
205	0xbe9894d2	-0.2980104
206	0x3dfcc791	0.12342752
207	0x3e3cf4d7	0.18452774
208	0xbe971c91	-0.29513982
209	0x3d32d8bf	0.043663736
210	0xbd2f543b	-0.042804938
211	0x3deacae2	0.11464478
212	0x3e4ff87b	0.20309632
213	0x3d81e294	0.063420445
214	0x3c57994d	0.013159108
215	0xbea40172	-0.32032353
216	0xbe660826	-0.22464046
217	0xbdd282e3	-0.10278871
218	0xbe9813f6	-0.2970273
219	0x3e1f7ef5	0.15575774
220	0x3ea50e16	0.3223731
221	0x3db2319c	0.087008685
222	0xbdeb2258	-0.1148116
223	0x3e53f407	0.20698558
224	0x3d90fee4	0.070798665
225	0x3e29707f	0.1654682
226	0x3de66175	0.11249057
227	0x3e2fe312	0.17176464
228	0xbddfd773	-0.109297656
229	0xbbacd887	-0.0052748355
230	0xbd448bc3	-0.04798485
231	0xbd83e3e3	-0.0643995
232	0x3e26fbc2	0.16306975
233	0xbdb51343	-0.088415645
234	0x3e776f6c	0.24163598
235	0x3d91d8ba	0.071214154
236	0xbe8d5760	-0.27605724
237	0xbe19dcd2	-0.15025643
238	0xbda7da4f	-0.08195936
239	0xbe8adece	-0.2712311
240	0xbea46069	-0.32104805
241	0xbd8e7375	-0.069556154
242	0x3b11154c	0.0022137938
243	0xbec1fcee	-0.37888283
244	0xbd87302e	-0.066009864
245	0x3e327070	0.17425704
246	0xbd71dffb	-0.059051495
247	0x3e5f3120	0.21796083
248	0x3e4dbb52	0.20090988
249	0x3e08957f	0.13338278
250	0x3e208e8e	0.1567938
251	0xbe405c9c	-0.18785328
252	0xbd6845f2	-0.05670733
253	0x3e4dfb7c	0.20115465
254	0xbd12b985	-0.035821456
255	0x3d69d8f9	0.057091687

sequential_2/lstm_8/Read_2/ReadVariableOp f4 [512]
0	0x3db26d77	0.08712285
1	0x3dfb4f49	0.12270982
2	0x3dc8f0a6	0.09811525
3	0x3d8a87e8	0.06764203
4	0x3e05fb71	0.13084199
5	0x3d366438	0.04452917
6	0x3dd8d5c9	0.10587651
7	0x3e2a46ee	0.1662862
8	0x3dac0889	0.084000655
9	0x3de81e96	0.11333959
10	0x3d9e76ae	0.0773748
11	0x3d63bc18	0.055599302
12	0x3df39d45	0.11895231
13	0x3da8c050	0.08239806
14	0x3d8067bc	0.06269786
15	0x3d8767bf	0.06611585
16	0x3e094619	0.13405646
17	0x3d7e77f6	0.062126122
18	0x3dfcc0dc	0.123414725
19	0x3deced99	0.11568756
20	0x3e071432	0.13191298
21	0x3df94342	0.121710315
22	0x3e1c7bea	0.15281644
23	0x3d8992c7	0.06717449
24	0x3dfee9bf	0.12446927
25	0x3dc3932d	0.09549556
26	0x3e001e70	0.12511611
27	0x3dc895b4	0.097941786
28	0x3d796cad	0.060894657
29	0x3dc47da7	0.09594279
30	0x3e29100e	0.1651003
31	0x3dc165f9	0.09443278
32	0x3ddcb0a8	0.10775882
33	0x3de7e479	0.113228746
34	0x3d93d78e	0.07218848
35	0x3da1f0a7	0.07907229
36	0x3dc47485	0.09592537
37	0x3d95be21	0.07311655
38	0x3dae06d1	0.08497394
39	0x3dfac7cf	0.12245142
40	0x3d874875	0.06605617
41	0x3d9ccb60	0.07655978
42	0x3d83f40f	0.06443035
43	0x3dfddbe6	0.12395458
44	0x3dc6a403	0.096992515
45	0x3e08c28f	0.13355468
46	0x3d760cac	0.06007068
47	0x3db46627	0.088085465
48	0x3d75ad90	0.059979975
49	0x3da4e01a	0.080505565
50	0x3df2b2ce	0.118505105
51	0x3d34816e	0.044068746
52	0x3df9133e	0.12161873
53	0x3da2ed8a	0.07955463
54	0x3de22d2d	0.11043773
55	0x3de469e0	0.111530066
56	0x3df53f90	0.11975014
57	0x3dd5a1bd	0.1043124
58	0x3d8b11d6	0.06790511
59	0x3d54ad19	0.05192289
60	0x3d2f3b50	0.042781174
61	0x3e1af1b3	0.15131263
62	0x3de2ece2	0.11080338
63	0x3ddb9583	0.107218765
64	0x3d94b9f6	0.07262032
65	0x3d9b4935	0.075823225
66	0x3dd6aa26	0.10481672
67	0x3d689172	0.056779332
68	0x3db61993	0.08891597
69	0x3d4528a8	0.048134476
70	0x3e097bbb	0.13426106
71	0x3d881dc3	0.066463016
72	0x3d14232e	0.036166362
73	0x3e195e3a	0.14977351
74	0x3dcb66f4	0.09931746
75	0x3de905eb	0.11378082
76	0x3d9ae0ea	0.0756243
77	0x3ddfcd47	0.109278254
78	0x3dd19197	0.10232847
79	0x3e0a24eb	0.13490646
80	0x3da9a486	0.082833335
81	0x3ddb6234	0.1071209
82	0x3dfde5af	0.12397324
83	0x3dbc00e9	0.09179861
84	0x3d99881d	0.07496665
85	0x3e01aa68	0.12662661
86	0x3e04e5bd	0.12978263
87	0x3db49091	0.08816636
88	0x3e025bde	0.12730357
89	0x3da9af88	0.08285433
90	0x3dd54845	0.10414175
91	0x3db33f64	0.08752325
92	0x3de5f670	0.11228645
93	0x3dd9a429	0.10627014
94	0x3deb8c06	0.11501317
95	0x3e02bd32	0.12767485
96	0x3e2559e2	0.16147569
97	0x3dd86b82	0.105673805
98	0x3daa061c	0.083019465
99	0x3d4fbfba	0.050719954
100	0x3dbcee5f	0.09225153
101	0x3e1aa7d9	0.15103091
102	0x3d8a2b37	0.06746524
103	0x3db7c569	0.089732
104	0x3d8c8db3	0.068629645
105	0x3dee8b7b	0.116476975
106	0x3df3fd5d	0.119135596
107	0x3e6d3905	0.23166282
108	0x3db7059b	0.08936616
109	0x3d7fb756	0.062430702
110	0x3dcc42df	0.09973692
111	0x3d435330	0.047686756
112	0x3db155e5	0.08658961
113	0x3dbb6ceb	0.09151634
114	0x3dc54688	0.096325934
115	0x3e173329	0.1476561
116	0x3da33317	0.07968729
117	0x3d9cd979	0.07658667
118	0x3df6a242	0.12042667
119	0x3da017d8	0.07817048
120	0x3e0773c1	0.1322775
121	0x3ded63d9	0.1159131
122	0x3dc33bc0	0.09532881
123	0x3dad07b0	0.08448732
124	0x3d210825	0.039314408
125	0x3df0ce17	0.117580585
126	0x3e0a3909	0.1349832
127	0x3dc195ec	0.094524235
128	0x3f800000	1.0
129	0x3f800000	1.0
130	0x3f800000	1.0
131	0x3f800000	1.0
132	0x3f800000	1.0
133	0x3f800000	1.0
134	0x3f800000	1.0
135	0x3f800000	1.0
136	0x3f800000	1.0
137	0x3f800000	1.0
138	0x3f800000	1.0
139	0x3f800000	1.0
140	0x3f800000	1.0
141	0x3f800000	1.0
142	0x3f800000	1.0
143	0x3f800000	1.0
144	0x3f800000	1.0
145	0x3f800000	1.0
146	0x3f800000	1.0
147	0x3f800000	1.0
148	0x3f800000	1.0
149	0x3f800000	1.0
150	0x3f800000	1.0
151	0x3f800000	1.0
152	0x3f800000	1.0
153	0x3f800000	1.0
154	0x3f800000	1.0
155	0x3f800000	1.0
156	0x3f800000	1.0
157	0x3f800000	1.0
158	0x3f800000	1.0
159	0x3f800000	1.0
160	0x3f800000	1.0
161	0x3f800000	1.0
162	0x3f800000	1.0
163	0x3f800000	1.0
164	0x3f800000	1.0
165	0x3f800000	1.0
166	0x3f800000	1.0
167	0x3f800000	1.0
168	0x3f800000	1.0
169	0x3f800000	1.0
170	0x3f800000	1.0
171	0x3f800000	1.0
172	0x3f800000	1.0
173	0x3f800000	1.0
174	0x3f800000	1.0
175	0x3f800000	1.0
176	0x3f800000	1.0
177	0x3f800000	1.0
178	0x3f800000	1.0
179	0x3f800000	1.0
180	0x3f800000	1.0
181	0x3f800000	1.0
182	0x3f800000	1.0
183	0x3f800000	1.0
184	0x3f800000	1.0
185	0x3f800000	1.0
186	0x3f800000	1.0
187	0x3f800000	1.0
188	0x3f800000	1.0
189	0x3f800000	1.0
190	0x3f800000	1.0
191	0x3f800000	1.0
192	0x3f800000	1.0
193	0x3f800000	1.0
194	0x3f800000	1.0
195	0x3f800000	1.0
196	0x3f800000	1.0
197	0x3f800000	1.0
198	0x3f800000	1.0
199	0x3f800000	1.0
200	0x3f800000	1.0
201	0x3f800000	1.0
202	0x3f800000	1.0
203	0x3f800000	1.0
204	0x3f800000	1.0
205	0x3f800000	1.0
206	0x3f800000	1.0
207	0x3f800000	1.0
208	0x3f800000	1.0
209	0x3f800000	1.0
210	0x3f800000	1.0
211	0x3f800000	1.0
212	0x3f800000	1.0
213	0x3f800000	1.0
214	0x3f800000	1.0
215	0x3f800000	1.0
216	0x3f800000	1.0
217	0x3f800000	1.0
218	0x3f800000	1.0
219	0x3f800000	1.0
220	0x3f800000	1.0
221	0x3f800000	1.0
222	0x3f800000	1.0
223	0x3f800000	1.0
224	0x3f800000	1.0
225	0x3f800000	1.0
226	0x3f800000	1.0
227	0x3f800000	1.0
228	0x3f800000	1.0
229	0x3f800000	1.0
230	0x3f800000	1.0
231	0x3f800000	1.0
232	0x3f800000	1.0
233	0x3f800000	1.0
234	0x3f800000	1.0
235	0x3f800000	1.0
236	0x3f800000	1.0
237	0x3f800000	1.0
238	0x3f800000	1.0
239	0x3f800000	1.0
240	0x3f800000	1.0
241	0x3f800000	1.0
242	0x3f800000	1.0
243	0x3f800000	1.0
244	0x3f800000	1.0
245	0x3f800000	1.0
246	0x3f800000	1.0
247	0x3f800000	1.0
248	0x3f800000	1.0
249	0x3f800000	1.0
250	0x3f800000	1.0
251	0x3f800000	1.0
252	0x3f800000	1.0
253	0x3f800000	1.0
254	0x3f800000	1.0
255	0x3f800000	1.0

sequential_2/lstm_7/Read_2/ReadVariableOp f4 [200]
0	0x3d2bd3f2	0.041950174
1	0x3dea7986	0.1144896
2	0x3dfe8efe	0.12429617
3	0x3e2379c3	0.15964417
4	0x3d1e4b5a	0.03864608
5	0x3da555f6	0.080730364
6	0x3dc110f2	0.0942706
7	0x3e05ecec	0.1307866
8	0x3d87d6a3	0.066327356
9	0x3d6f1ecc	0.05837898
10	0x3d8a0af0	0.067403674
11	0x3e04a7e7	0.12954675
12	0x3d969acc	0.07353744
13	0x3db40477	0.08789914
14	0x3dd1ed5c	0.10250351
15	0x3de57e49	0.112057276
16	0x3e12f0fd	0.14349742
17	0x3daa2c11	0.08309186
18	0x3e067813	0.13131742
19	0x3d82eff6	0.06393425
20	0x3e19daa0	0.15024805
21	0x3da7167b	0.08158585
22	0x3dee47e6	0.11634807
23	0x3e024770	0.12722564
24	0x3da164b8	0.07880539
25	0x3e026e9d	0.12737508
26	0x3de24d96	0.110499546
27	0x3e20eedd	0.15716119
28	0x3dba05c8	0.09083134
29	0x3d9d7125	0.07687596
30	0x3dfe103e	0.12405442
31	0x3e05d803	0.13070683
32	0x3e0a118e	0.13483259
33	0x3e106d25	0.14104135
34	0x3dafe4d7	0.085885696
35	0x3d4c6ed4	0.04991038
36	0x3db5d8ca	0.0887924
37	0x3dc9ec6d	0.09859548
38	0x3df4351c	0.11924192
39	0x3df71cc3	0.12066033
40	0x3d846005	0.06463627
41	0x3d893089	0.066987105
42	0x3dfbf9d5	0.12303511
43	0x3de1b083	0.11019995
44	0x3e0257fe	0.12728879
45	0x3d4be83f	0.049782034
46	0x3d417c3d	0.047237623
47	0x3e0d97ed	0.13827486
48	0x3deaf00a	0.11471565
49	0x3de50215	0.11182038
50	0x3f800000	1.0
51	0x3f800000	1.0
52	0x3f800000	1.0
53	0x3f800000	1.0
54	0x3f800000	1.0
55	0x3f800000	1.0
56	0x3f800000	1.0
57	0x3f800000	1.0
58	0x3f800000	1.0
59	0x3f800000	1.0
60	0x3f800000	1.0
61	0x3f800000	1.0
62	0x3f800000	1.0
63	0x3f800000	1.0
64	0x3f800000	1.0
65	0x3f800000	1.0
66	0x3f800000	1.0
67	0x3f800000	1.0
68	0x3f800000	1.0
69	0x3f800000	1.0
70	0x3f800000	1.0
71	0x3f800000	1.0
72	0x3f800000	1.0
73	0x3f800000	1.0
74	0x3f800000	1.0
75	0x3f800000	1.0
76	0x3f800000	1.0
77	0x3f800000	1.0
78	0x3f800000	1.0
79	0x3f800000	1.0
80	0x3f800000	1.0
81	0x3f800000	1.0
82	0x3f800000	1.0
83	0x3f800000	1.0
84	0x3f800000	1.0
85	0x3f800000	1.0
86	0x3f800000	1.0
87	0x3f800000	1.0
88	0x3f800000	1.0
89	0x3f800000	1.0
90	0x3f800000	1.0
91	0x3f800000	1.0
92	0x3f800000	1.0
93	0x3f800000	1.0
94	0x3f800000	1.0
95	0x3f800000	1.0
96	0x3f800000	1.0
97	0x3f800000	1.0
98	0x3f800000	1.0
99	0x3f800000	1.0
100	0xbca40563	-0.0200221
101	0xbbb89504	-0.0056329984
102	0xbceb4388	-0.028718725
103	0x3cc90160	0.024536788
104	0xbad9c9e4	-0.0016615954
105	0x3c245101	0.010029078
106	0xbccc98f6	-0.024975281
107	0x3d657fef	0.05603021
108	0xbc6ff07d	-0.014644739
109	0xbba6dd87	-0.005092326
110	0x3cf5537e	0.029947039
111	0x3b2ff0e7	0.002684647
112	0x3c743d48	0.014907189
113	0x3bc1a572	0.005909615
114	0x3bae6521	0.005322114
115	0xbcaf8524	-0.021425791
116	0xba8c4cec	-0.0010704077
117	0xbce4b9b8	-0.027920589
118	0xbd833858	-0.06407231
119	0x3c92773b	0.01787912
120	0x3c88a940	0.016682267
121	0xbcd738ac	-0.02627214
122	0x3d41b215	0.047288973
123	0xbd0ae4ad	-0.03390949
124	0x3c882be6	0.016622495
125	0x3c7940da	0.015213216
126	0x3cb52247	0.022111071
127	0x3d02ff93	0.031982016
128	0x3c9230ab	0.017845472
129	0x3a0efced	0.0005454559
130	0xb8668844	-5.496318e-05
131	0x3a9c4f2a	0.0011925448
132	0x3cd72dd5	0.026266972
133	0x3cb8c4eb	0.022554835
134	0xbc5eaa7b	-0.01359045
135	0x3b2930a4	0.0025816346
136	0xbcaffba8	-0.021482304
137	0x3c9d622b	0.01921185
138	0x3c043940	0.00807029
139	0xbc17dcbc	-0.009268936
140	0xbc95e479	-0.01829742
141	0x3b0c0fa0	0.0021371618
142	0xbc16ffed	-0.009216291
143	0x3b0aace2	0.0021160175
144	0x3d7b1444	0.061298624
145	0xbc0bba6b	-0.008528332
146	0x3cc73dfc	0.024321549
147	0xbd43e91f	-0.047829743
148	0xbc6a5fa6	-0.014305031
149	0xbd0f2e40	-0.034956217
150	0x3d447db8	0.047971457
151	0x3df0124a	0.11722238
152	0x3e02359f	0.12715767
153	0x3e294d83	0.16533475
154	0x3d56c2cf	0.052431878
155	0x3da81c8c	0.0820857
156	0x3dc662af	0.09686791
157	0x3e09acce	0.13444826
158	0x3d95842b	0.073006
159	0x3d88e19e	0.06683658
160	0x3d92227a	0.07135482
161	0x3e089b36	0.13340458
162	0x3d9d4c13	0.07680526
163	0x3dc0c8b7	0.09413283
164	0x3dd96064	0.10614088
165	0x3de720d9	0.11285562
166	0x3e142358	0.14466608
167	0x3db940fc	0.09045598
168	0x3e05c369	0.13062824
169	0x3d8bf056	0.0683295
170	0x3e1901ce	0.14942095
171	0x3dabdf51	0.083922036
172	0x3de9f3c0	0.11423445
173	0x3e0630e2	0.13104585
174	0x3da8f27f	0.082493775
175	0x3e06ad31	0.13152005
176	0x3de43bcc	0.11144218
177	0x3e228844	0.15872294
178	0x3dbc80e9	0.09204275
179	0x3da03290	0.07822144
180	0x3e03fc58	0.1288923
181	0x3e04ae68	0.12957156
182	0x3e065a6f	0.13120435
183	0x3e139492	0.14412144
184	0x3db93075	0.090424456
185	0x3d62ebc1	0.055400614
186	0x3dca3403	0.09873202
187	0x3ddc382c	0.107529014
188	0x3df64080	0.12024021
189	0x3df78afd	0.12087057
190	0x3d897b77	0.06713002
191	0x3d8783dc	0.06616947
192	0x3e007110	0.1254313
193	0x3def4765	0.11683539
194	0x3e02f4e5	0.12788732
195	0x3d768a4e	0.06019049
196	0x3d61a734	0.055091098
197	0x3e10d54e	0.1414387
198	0x3df13892	0.11778368
199	0x3de849ab	0.11342176

sequential_2/dense_5/BiasAdd/ReadVariableOp f4 [5]
0	0x3d8c97a3	0.0686486
1	0xbda26759	-0.07929868
2	0xbd02807b	-0.03186081
3	0x3cdefa87	0.02721907
4	0xbc03f16f	-0.008053168

sequential_2/dense_4/BiasAdd/ReadVariableOp f4 [128]
0	0x3d48db78	0.049037427
1	0x3d71a439	0.058994506
2	0xbbf6fe2f	-0.0075376253
3	0x3c996d99	0.018729018
4	0x3dbf5a44	0.09343389
5	0x3d89595e	0.067064986
6	0xbce3ac3e	-0.027792092
7	0x3c4ba687	0.01242984
8	0x3d5da0c5	0.0541084
9	0x3dd04bfc	0.10170743
10	0x3c772602	0.015084745
11	0x3c5451a8	0.0129589215
12	0xbc4a8604	-0.012361053
13	0xbc766346	-0.015038317
14	0xbd14c3de	-0.036319606
15	0xbd58262a	-0.05277077
16	0xbd190dd2	-0.037366696
17	0xbccdb5ff	-0.025111197
18	0x3da01aa1	0.07817579
19	0xbcfda067	-0.030960275
20	0xbd3ab952	-0.04558689
21	0x3d73eda4	0.059552804
22	0xbc96a476	-0.018388968
23	0x3e087880	0.13327217
24	0x3d8ceaaf	0.068807
25	0x3df7a9c9	0.12092931
26	0xbd151973	-0.036401223
27	0xbdb2d838	-0.08732647
28	0xbd2591f6	-0.040422402
29	0xbc2b4f40	-0.010455906
30	0xbcd4bf4e	-0.025970127
31	0x3d651d19	0.055935953
32	0x3da78507	0.0817967
33	0x3d8f9d41	0.07012416
34	0x3b537d9d	0.0032270916
35	0xbdc497b8	-0.095992506
36	0x3d888f9a	0.06668015
37	0xbd18e6a8	-0.037329346
38	0x3cb477b5	0.022029737
39	0x3d42b142	0.047532327
40	0x3c956c8b	0.018240234
41	0x3da8b21f	0.08237099
42	0xbdb328f9	-0.08748049
43	0x3e007e34	0.12548143
44	0x3dbf9553	0.09354653
45	0x3deb7dcd	0.11498604
46	0xbd307f2c	-0.04309003
47	0x3d9fedac	0.07809004
48	0x3e032e3a	0.12810603
49	0x3dee4b70	0.11635482
50	0x3d1f5be7	0.038906004
51	0x3c702600	0.014657497
52	0x3d8531f8	0.065036714
53	0xbdf006b5	-0.11720029
54	0x3df3ba57	0.11900776
55	0x3da97e86	0.082760856
56	0x3cfb9aaa	0.030713398
57	0x3e11a815	0.14224274
58	0xbde2f153	-0.11081185
59	0x3d8beb5e	0.06832002
60	0xbd820b6c	-0.06349835
61	0x3cf1b9bc	0.02950751
62	0xbcfb20cc	-0.030655287
63	0x3de3b434	0.111183554
64	0x3ca52f5e	0.020164188
65	0xbd186923	-0.03720964
66	0x3dd6e177	0.10492223
67	0xbde15617	-0.110027485
68	0x3de7332a	0.11289056
69	0xbdb1cda4	-0.08681801
70	0x3d8710af	0.06594979
71	0xbccb8490	-0.024843484
72	0x3dbebca1	0.09313322
73	0x3de361a6	0.11102609
74	0x3d7e3cca	0.06206969
75	0x3de60d45	0.11233
76	0xbcb329b6	-0.021870475
77	0x3daad385	0.083411254
78	0x3d59c078	0.053162068
79	0xbd615d23	-0.055020463
80	0x3cf50485	0.029909382
81	0xbbbba6b2	-0.0057266587
82	0xbbd6c849	-0.0065546376
83	0xbc378fea	-0.011203745
84	0xbc820b68	-0.01587458
85	0xbbf3c1f7	-0.007438894
86	0x3bc3b589	0.0059725684
87	0x3c8eaf3c	0.017417543
88	0x3d62281e	0.05521404
89	0x3d8016f2	0.062543765
90	0x3d7c9633	0.06166668
91	0xbdc489d6	-0.095966026
92	0xbdbc8ad2	-0.092061654
93	0xbd8b5edc	-0.06805202
94	0x3d72a26e	0.059236936
95	0xbc59ec33	-0.013300943
96	0x3d111559	0.03542075
97	0x3c785a33	0.015158224
98	0x3c318d8a	0.010836968
99	0xbccef22e	-0.025261965
100	0xbcacc241	-0.021088721
101	0xbd532f96	-0.051559053
102	0x3d385645	0.045004148
103	0x3d8ac229	0.06775314
104	0xbe084208	-0.13306439
105	0x3d17cfbf	0.037063356
106	0xbd81dfe4	-0.06341532
107	0xbd36e807	-0.044654872
108	0x3de9d6f2	0.11417951
109	0x3dcec7ac	0.10096678
110	0x3ce8d929	0.028423863
111	0x3cdaaffc	0.026695244
112	0x3deca744	0.11555341
113	0x3d1b18c5	0.03786542
114	0x3d0f57ee	0.034995966
115	0x3d73a959	0.059487674
116	0x3d781cf7	0.060574498
117	0xbd28662f	-0.041113075
118	0x3da87cfb	0.08226963
119	0x3c4d51b7	0.012531689
120	0xbd72e92e	-0.05930441
121	0xb858bbcf	-5.1673323e-05
122	0xbce887dd	-0.028385097
123	0x3d9d0379	0.07666678
124	0x3cbb906b	0.022896012
125	0xbcfe68c3	-0.031055814
126	0xbd16e8d3	-0.036843132
127	0xbd9935a0	-0.07480931

sequential_2/bidirectional_2/forward_lstm_6/Read_2/ReadVariableOp f4 [1024]
0	0x3e020157	0.12695824
1	0x3d9974d1	0.07492984
2	0x3e074e87	0.1321355
3	0x3da3009d	0.07959101
4	0x3e147f94	0.14501792
5	0x3d963c1f	0.07335686
6	0x3e00ee8c	0.12590998
7	0x3dc513df	0.09622931
8	0x3dc67997	0.0969116
9	0x3dcc79a2	0.09984137
10	0x3e28652e	0.16444847
11	0x3dbd62b2	0.0924734
12	0x3e2ef359	0.17085017
13	0x3e52c799	0.20583953
14	0x3e372201	0.17884065
15	0x3e02f681	0.12789346
16	0x3de7df9e	0.113219485
17	0x3da57cf7	0.08080476
18	0x3d413cc8	0.047177106
19	0x3e0bb892	0.13644627
20	0x3e03a812	0.12857082
21	0x3e02f905	0.12790306
22	0x3e28b515	0.16475327
23	0x3e215f88	0.15759099
24	0x3e173165	0.14764936
25	0x3d958ac5	0.07301859
26	0x3ddf1d45	0.108942546
27	0x3de0fd95	0.10985867
28	0x3dae91b6	0.08523886
29	0x3e020367	0.1269661
30	0x3dcc7703	0.09983637
31	0x3db20350	0.08692038
32	0x3de2ffd8	0.110839546
33	0x3df8f723	0.121565126
34	0x3db34c0f	0.087547414
35	0x3de51de9	0.111873455
36	0x3e108188	0.14111912
37	0x3dfac509	0.12244613
38	0x3de4782a	0.11155732
39	0x3e1aac04	0.15104681
40	0x3dd550c5	0.10415796
41	0x3db770be	0.08957051
42	0x3e05f351	0.13081099
43	0x3dd36043	0.10321095
44	0x3dec0d68	0.115259945
45	0x3e069617	0.13143192
46	0x3dbcec37	0.09224742
47	0x3dd288c9	0.10279996
48	0x3e06610e	0.13122961
49	0x3df39ed1	0.11895526
50	0x3e015b65	0.1263252
51	0x3dc40ebd	0.095731236
52	0x3d7cf93b	0.061761122
53	0x3db7cc14	0.08974472
54	0x3d4d6b36	0.050151072
55	0x3e0b9e46	0.13634595
56	0x3dd7a01c	0.10528585
57	0x3d83bc96	0.06432454
58	0x3d91cb95	0.07118908
59	0x3dad22a7	0.08453875
60	0x3dbd3659	0.092388816
61	0x3de0e1fa	0.109806016
62	0x3e14e049	0.14538683
63	0x3da3dac0	0.080007076
64	0x3d892058	0.06695622
65	0x3e245ccd	0.16051026
66	0x3da8325f	0.082127325
67	0x3d9b3727	0.07578879
68	0x3def1071	0.11673058
69	0x3e020318	0.12696493
70	0x3dfec19e	0.12439273
71	0x3de61696	0.11234777
72	0x3e343ffb	0.17602532
73	0x3e33835d	0.1753058
74	0x3e10e798	0.14150846
75	0x3da27b44	0.07933667
76	0x3d835a7d	0.06413744
77	0x3dd3ecf3	0.10347929
78	0x3d1d9691	0.03847367
79	0x3e32716c	0.1742608
80	0x3dd41fa0	0.103575945
81	0x3e20fd9a	0.15721741
82	0x3dd093cd	0.10184441
83	0x3de37bab	0.11107572
84	0x3e1016f3	0.14071254
85	0x3dc4dc2b	0.09612306
86	0x3d948778	0.07252401
87	0x3dc3ec6e	0.0956658
88	0x3ddea91d	0.108720995
89	0x3dc38256	0.09546344
90	0x3deabc9e	0.11461757
91	0x3df28acf	0.11842882
92	0x3e202b5b	0.15641539
93	0x3e061a25	0.13095911
94	0x3df440ed	0.11926446
95	0x3e33d30d	0.17560978
96	0x3dea3f44	0.11437848
97	0x3e1ba890	0.1520102
98	0x3dc90985	0.09816269
99	0x3cb86093	0.022506988
100	0x3d860720	0.06544328
101	0x3e04169f	0.12899254
102	0x3dcd5d7c	0.10027596
103	0x3ddcc290	0.10779297
104	0x3d7e1890	0.062035143
105	0x3e12f76a	0.14352193
106	0x3ddf8e22	0.109157816
107	0x3dedef56	0.11617915
108	0x3df4563f	0.11930513
109	0x3e27f626	0.16402492
110	0x3d626a03	0.055276882
111	0x3e043b2e	0.129132
112	0x3de0d8d6	0.10978858
113	0x3dadb696	0.08482091
114	0x3e048fdd	0.12945504
115	0x3e381fb4	0.17980844
116	0x3df2f892	0.11863817
117	0x3dead6e7	0.114667706
118	0x3dadbae3	0.084829114
119	0x3e0c1751	0.1368077
120	0x3d88b591	0.06675256
121	0x3dec4243	0.11536076
122	0x3df347ac	0.11878905
123	0x3db5616d	0.08856473
124	0x3dc2b38d	0.09506903
125	0x3dde3535	0.10849992
126	0x3d6f2eb3	0.058394145
127	0x3df8a0c0	0.12140036
128	0x3dd19510	0.102335095
129	0x3e56abfc	0.20964044
130	0x3db7ed63	0.08980825
131	0x3e0aba15	0.13547547
132	0x3de48948	0.11158997
133	0x3e797256	0.24360022
134	0x3d96fbb5	0.07372228
135	0x3da70f99	0.08157272
136	0x3e136acd	0.1439621
137	0x3e8925f3	0.26786765
138	0x3e15d786	0.14632997
139	0x3db44c87	0.08803659
140	0x3dee952b	0.11649545
141	0x3e0d06f5	0.13772185
142	0x3df7d14f	0.12100469
143	0x3df590ea	0.11990531
144	0x3e00fc49	0.12596239
145	0x3d9c8e3a	0.07644315
146	0x3d935100	0.07193184
147	0x3e264a43	0.16239266
148	0x3de5be73	0.11217966
149	0x3dc335dc	0.09531757
150	0x3deb9097	0.11502188
151	0x3da5f0cd	0.0810257
152	0x3df4500f	0.119293325
153	0x3e0367fc	0.12832636
154	0x3dc20b45	0.09474806
155	0x3dcc544e	0.09977017
156	0x3e0f5ea5	0.14000948
157	0x3db6f490	0.08933365
158	0x3e15749e	0.14595267
159	0x3dd7cec1	0.10537482
160	0x3da88c7e	0.08229922
161	0x3df6bf71	0.12048233
162	0x3daaefb0	0.08346498
163	0x3e03baba	0.128642
164	0x3e0d4c9e	0.13798758
165	0x3db2ccd7	0.08730476
166	0x3e3e30ee	0.18573353
167	0x3d8a315a	0.06747694
168	0x3de547d8	0.11195344
169	0x3e17d1d0	0.14826131
170	0x3dcb463b	0.09925505
171	0x3e00d12f	0.12579797
172	0x3def5d32	0.116876975
173	0x3e242b46	0.16032133
174	0x3dfb388b	0.12266644
175	0x3dde6c9f	0.108605616
176	0x3d981234	0.07425347
177	0x3e227a4d	0.15866967
178	0x3db5fb38	0.08885807
179	0x3ddf1b7b	0.10893913
180	0x3cf13495	0.029444018
181	0x3dc4ddf4	0.09612647
182	0x3da79a0b	0.08183678
183	0x3ddeb355	0.108740486
184	0x3db851d3	0.08999982
185	0x3dca2f42	0.09872295
186	0x3de0c03f	0.10974168
187	0x3d9b9230	0.075962424
188	0x3dc64bd1	0.096824296
189	0x3debab2f	0.1150726
190	0x3e194c02	0.14970401
191	0x3df8968b	0.12138089
192	0x3e011c8d	0.12608548
193	0x3e02d593	0.12776785
194	0x3e2be08d	0.16784878
195	0x3e0f7783	0.14010434
196	0x3e1a50eb	0.1506993
197	0x3dbb0a25	0.09132794
198	0x3dc5f7ac	0.0966638
199	0x3df682a9	0.1203664
200	0x3df7a91c	0.12092802
201	0x3e019d77	0.12657724
202	0x3e0b19d6	0.13584074
203	0x3deb682b	0.11494478
204	0x3dbce38f	0.09223091
205	0x3ddba3c8	0.10724598
206	0x3e2a2f35	0.1661957
207	0x3dc4e0e2	0.096132055
208	0x3da04b43	0.07826855
209	0x3e16b16f	0.14716123
210	0x3d8f18bf	0.06987142
211	0x3dd12b5e	0.1021335
212	0x3dd6049e	0.104500994
213	0x3e001a74	0.12510091
214	0x3d88c77e	0.06678675
215	0x3e32b00a	0.17449966
216	0x3da83f4a	0.082151964
217	0x3d9bf11a	0.07614346
218	0x3e29335a	0.16523495
219	0x3dd95faa	0.106139496
220	0x3e1198c9	0.14218439
221	0x3e282d3d	0.16423507
222	0x3e1cbd91	0.15306689
223	0x3e0ec469	0.13942112
224	0x3db4492f	0.08803021
225	0x3db1c404	0.08679965
226	0x3df5395a	0.119738296
227	0x3ddb4c4f	0.10707914
228	0x3dff89fc	0.1247749
229	0x3e0db20c	0.1383745
230	0x3ddab9b8	0.10679954
231	0x3dac094a	0.08400209
232	0x3de4a2ee	0.11163889
233	0x3dde862a	0.108654335
234	0x3e399b53	0.18125658
235	0x3e24cf36	0.1609467
236	0x3df7fb3f	0.12108468
237	0x3dc8dad8	0.09807366
238	0x3d562e81	0.052290443
239	0x3dfba0eb	0.12286552
240	0x3e0cc50e	0.13747045
241	0x3de242b2	0.11047877
242	0x3dea2646	0.11433081
243	0x3deb4caf	0.114892356
244	0x3dc7d84a	0.09758051
245	0x3db9d606	0.09074025
246	0x3dd30a4b	0.103046976
247	0x3e0a2f33	0.13494568
248	0x3da3d954	0.080004364
249	0x3dae6b40	0.0851655
250	0x3e017aaf	0.12644456
251	0x3dce24cc	0.10065612
252	0x3e239960	0.15976477
253	0x3def22a8	0.11676532
254	0x3dd7360e	0.10508357
255	0x3de11c47	0.109917216

sequential_2/bidirectional_2/backward_lstm_6/Read_2/ReadVariableOp f4 [1024]
0	0x3dd2ca8c	0.10292539
1	0x3ddeee99	0.10885353
2	0x3da2a983	0.07942488
3	0x3dc1abcd	0.094565965
4	0x3dd8b674	0.10581675
5	0x3de500cb	0.11181792
6	0x3d534544	0.05157973
7	0x3e05bf8d	0.13061352
8	0x3dbb53e6	0.09146862
9	0x3dd63cc2	0.104608074
10	0x3d953e20	0.0728724
11	0x3e024eb1	0.12725331
12	0x3e0179f1	0.12644173
13	0x3dffb674	0.12485972
14	0x3ddb426c	0.10706028
15	0x3da9353e	0.08262108
16	0x3dd85958	0.10563916
17	0x3dfc27fd	0.12312315
18	0x3da72029	0.08160431
19	0x3dfaf35d	0.12253449
20	0x3e12bc7e	0.14329717
21	0x3dc2ca5c	0.09511253
22	0x3e087723	0.13326697
23	0x3d81d7eb	0.06340011
24	0x3dd7c25d	0.10535119
25	0x3daf13f8	0.085487306
26	0x3dc76614	0.09736267
27	0x3d98d58e	0.07462607
28	0x3dea3d9c	0.11437532
29	0x3df84cf6	0.12124054
30	0x3d9d9d8e	0.07696067
31	0x3e0d8a47	0.1382228
32	0x3da41aa1	0.080128916
33	0x3e189c37	0.14903341
34	0x3db1e038	0.086853445
35	0x3d8a0546	0.06739287
36	0x3e01f384	0.1269055
37	0x3e4357d9	0.1907648
38	0x3ddd1874	0.1079568
39	0x3dca8f2e	0.098905906
40	0x3ddf1f57	0.108946495
41	0x3df8c2bc	0.12146518
42	0x3dee7fd7	0.11645477
43	0x3dea8350	0.11450827
44	0x3dbeab09	0.09309966
45	0x3e168412	0.14698818
46	0x3ddcd648	0.107830584
47	0x3e0e1fc9	0.13879313
48	0x3dda481b	0.10658284
49	0x3e16dd4d	0.14732857
50	0x3dd1ff9d	0.102538325
51	0x3da1e0c1	0.079041965
52	0x3dbd7f89	0.09252841
53	0x3e0c2d29	0.13689102
54	0x3e82acaa	0.25522357
55	0x3dd52703	0.104078315
56	0x3e25add6	0.16179594
57	0x3e0d6297	0.1380714
58	0x3e1ca7d2	0.15298393
59	0x3d91d015	0.071197666
60	0x3dfdc747	0.12391525
61	0x3dfd77a9	0.12376339
62	0x3ddd2c38	0.1079945
63	0x3de7d1ec	0.11319336
64	0x3dd41117	0.10354822
65	0x3e002fc4	0.12518221
66	0x3e16ad6d	0.14714594
67	0x3e0a8d09	0.13530363
68	0x3dc2dd0d	0.09514818
69	0x3e035924	0.12826973
70	0x3dfbfe1c	0.12304327
71	0x3defec9c	0.117150515
72	0x3e71e113	0.23621015
73	0x3e03a78a	0.1285688
74	0x3d7ef9f5	0.062250096
75	0x3e0d885e	0.13821551
76	0x3e050811	0.12991358
77	0x3dba0df0	0.090846896
78	0x3dc82a94	0.09773746
79	0x3e0f8cbe	0.14018533
80	0x3e186f6a	0.14886251
81	0x3de2b52f	0.11069714
82	0x3df6ea83	0.12056448
83	0x3da9a769	0.08283884
84	0x3ddd0062	0.10791089
85	0x3e12d3c3	0.14338593
86	0x3da3dd0c	0.08001146
87	0x3e222b3b	0.15836804
88	0x3dc5dd0e	0.096613035
89	0x3ddf969a	0.10917397
90	0x3e07fff5	0.13281234
91	0x3e1d8975	0.15384467
92	0x3e0d9120	0.13824892
93	0x3e5f9a7b	0.21836273
94	0x3e044d0a	0.12920013
95	0x3dba2168	0.09088403
96	0x3dd2eb43	0.10298779
97	0x3da671e0	0.08127189
98	0x3dfcee8c	0.12350187
99	0x3dd8701c	0.10568258
100	0x3dde4e4d	0.108547784
101	0x3e1f975d	0.15585084
102	0x3decfc20	0.115715265
103	0x3e212066	0.15735015
104	0x3ddc109a	0.10745354
105	0x3e0c7ded	0.13719912
106	0x3e00142d	0.12507696
107	0x3dd1b66e	0.10239874
108	0x3e07fdb8	0.1328038
109	0x3dec2724	0.11530903
110	0x3ddfd397	0.109290294
111	0x3dcc7f98	0.09985274
112	0x3de5bc08	0.11217505
113	0x3df89c70	0.12139213
114	0x3e24a4c1	0.16078474
115	0x3e10d4d6	0.1414369
116	0x3e0154ae	0.12629959
117	0x3e1b206d	0.15149088
118	0x3d968df1	0.07351292
119	0x3dee443b	0.11634108
120	0x3d79191b	0.060814958
121	0x3df42457	0.11920994
122	0x3dcd001b	0.10009786
123	0x3de95600	0.11393356
124	0x3dbdf145	0.09274534
125	0x3d93ff7c	0.07226464
126	0x3dbec136	0.09314196
127	0x3daf4afa	0.085592225
128	0x3de6dcd1	0.11272586
129	0x3da2af20	0.07943559
130	0x3daa9e3f	0.08330964
131	0x3db04a6f	0.08607947
132	0x3d91c1f1	0.071170695
133	0x3df4e7d6	0.11958282
134	0x3e03b129	0.1286055
135	0x3dd9b6b1	0.10630549
136	0x3db8b503	0.090189
137	0x3da6e1a3	0.081485055
138	0x3e512ef8	0.20428073
139	0x3db5e2a1	0.08881117
140	0x3e0fd281	0.14045145
141	0x3dd99e9a	0.10625954
142	0x3de8137f	0.113318436
143	0x3e139ba5	0.14414842
144	0x3deb0cd3	0.114770554
145	0x3dae5b48	0.08513504
146	0x3d8e4ab3	0.069478415
147	0x3db82d58	0.08993024
148	0x3de60656	0.11231677
149	0x3dd041ff	0.10168838
150	0x3dce5e54	0.100765854
151	0x3dec4db0	0.11538255
152	0x3e3e8694	0.18606025
153	0x3e0d7e1c	0.13817638
154	0x3defeb0a	0.11714752
155	0x3e1ec795	0.15505822
156	0x3e03d33f	0.12873553
157	0x3de6a534	0.11261979
158	0x3e0db482	0.1383839
159	0x3d975c1b	0.073906146
160	0x3e25766e	0.16158459
161	0x3d9fa911	0.07795919
162	0x3e247ea1	0.1606393
163	0x3ddc17f4	0.10746756
164	0x3ddd9102	0.10818674
165	0x3df6ced3	0.12051167
166	0x3e13c8ee	0.14432117
167	0x3d8e53f3	0.06949606
168	0x3e283107	0.16424952
169	0x3e135a55	0.14389928
170	0x3e6cb6e9	0.2311665
171	0x3dcc067d	0.09962175
172	0x3e149c5a	0.14512768
173	0x3da1a754	0.078932434
174	0x3dfc2f9f	0.123137705
175	0x3df73bd8	0.12071961
176	0x3da912ef	0.082555644
177	0x3d8f6d17	0.07003229
178	0x3d9810c6	0.07425074
179	0x3dc94e23	0.098293565
180	0x3dd7a0e6	0.10528736
181	0x3e161bfa	0.1465911
182	0x3df1036d	0.117682315
183	0x3df295c2	0.1184497
184	0x3e0e3043	0.13885598
185	0x3ddf087c	0.1089029
186	0x3e2b0776	0.16702065
187	0x3e021b00	0.12705612
188	0x3dcb03ae	0.09912811
189	0x3dfa8d2d	0.122339584
190	0x3dfcf736	0.12351839
191	0x3e13fcef	0.14451955
192	0x3dc7c1a3	0.0975373
193	0x3de8b2bc	0.11362216
194	0x3e06e9c4	0.13175112
195	0x3de44fba	0.11148019
196	0x3dfa13e9	0.12210829
197	0x3e196b62	0.1498237
198	0x3e02a8f0	0.12759757
199	0x3e1377fa	0.14401236
200	0x3da3afd3	0.0799252
201	0x3de09857	0.109665565
202	0x3dbfb027	0.0935977
203	0x3df52547	0.11970001
204	0x3d83ed98	0.06441802
205	0x3e23c0dc	0.15991539
206	0x3d947e1a	0.072506145
207	0x3db84223	0.089969896
208	0x3ddb309d	0.107026316
209	0x3e0d3b4a	0.13792148
210	0x3dd3ab25	0.103353776
211	0x3de2dce0	0.11077285
212	0x3d9ee064	0.07757643
213	0x3df6244d	0.120186426
214	0x3dda75f7	0.10667031
215	0x3e1dce42	0.15410712
216	0x3e11cdf8	0.14238727
217	0x3e169e0f	0.14708732
218	0x3dea816c	0.114504665
219	0x3e0daa96	0.13834605
220	0x3e054b64	0.1301704
221	0x3de0d863	0.109787725
222	0x3da240be	0.07922505
223	0x3dfec967	0.12440758
224	0x3e1b5dce	0.15172502
225	0x3df74c4e	0.12075101
226	0x3e01b77c	0.1266765
227	0x3dafd3ff	0.08585357
228	0x3e06dc3f	0.13169955
229	0x3e1f4ae3	0.15555911
230	0x3db0c99f	0.08632206
231	0x3d7c32be	0.06157183
232	0x3e0142c9	0.12623133
233	0x3e044c8f	0.1291983
234	0x3e04a61e	0.12953994
235	0x3dcf3fe3	0.10119607
236	0x3e25448e	0.16139433
237	0x3df8a91f	0.12141632
238	0x3dba3474	0.09092036
239	0x3e0d76f5	0.1381491
240	0x3d9fe5de	0.078075156
241	0x3dc92a17	0.09822481
242	0x3e019dcd	0.12657852
243	0x3e3ce680	0.18447304
244	0x3db03471	0.086037524
245	0x3dbfa6cd	0.093579866
246	0x3ddfc59b	0.10926362
247	0x3dd7d933	0.10539474
248	0x3e0baaf3	0.1363943
249	0x3e2cbb08	0.16868222
250	0x3e789d14	0.2427867
251	0x3e1a42b5	0.15064509
252	0x3e0834fb	0.1330146
253	0x3ddc76fb	0.10764881
254	0x3dda75a5	0.1066697
255	0x3e0cf58c	0.13765544

sequential_2/dense_4/MatMul i1 [128, 128] scale=0.002979403 zero_point=0
0	0x00	0.0
1	0x17	0.06852627
2	0xe5	-0.08044388
3	0xfb	-0.014897015
4	0x33	0.15194955
5	0x1f	0.09236149
6	0xe5	-0.08044388
7	0xe6	-0.077464476
8	0x04	0.011917612
9	0x29	0.12215552
10	0xe9	-0.06852627
11	0xcb	-0.15790835
12	0x19	0.07448507
13	0xd4	-0.13109373
14	0xd5	-0.12811433
15	0x29	0.12215552
16	0x0d	0.038732238
17	0xde	-0.101299696
18	0xe0	-0.09534089
19	0xd9	-0.116196714
20	0x1c	0.08342328
21	0x1c	0.08342328
22	0x15	0.06256746
23	0x31	0.14599074
24	0xf1	-0.044691045
25	0x2d	0.13407312
26	0xfa	-0.017876416
27	0xbc	-0.20259939
28	0x1b	0.08044388
29	0x38	0.16684656
30	0x37	0.16386716
31	0xd3	-0.13407312
32	0xe9	-0.06852627
33	0xcd	-0.15194955
34	0xf4	-0.035752833
35	0xf8	-0.023835223
36	0xfc	-0.011917612
37	0x02	0.005958806
38	0xc8	-0.16684656
39	0xdf	-0.0983203
40	0xfa	-0.017876416
41	0x04	0.011917612
42	0xcc	-0.15492895
43	0x47	0.2115376
44	0xce	-0.14897014
45	0xd3	-0.13407312
46	0x28	0.11917612
47	0x06	0.017876416
48	0xc7	-0.16982597
49	0x06	0.017876416
50	0x1b	0.08044388
51	0x15	0.06256746
52	0x09	0.026814627
53	0x3d	0.18174358
54	0xc0	-0.19068179
55	0xfc	-0.011917612
56	0xdd	-0.1042791
57	0xe6	-0.077464476
58	0xe4	-0.08342328
59	0x26	0.11321731
60	0x12	0.053629253
61	0x0e	0.04171164
62	0xc8	-0.16684656
63	0xc9	-0.16386716
64	0xc4	-0.17876418
65	0xfa	-0.017876416
66	0xdb	-0.110237904
67	0xea	-0.06554686
68	0x02	0.005958806
69	0xde	-0.101299696
70	0xfa	-0.017876416
71	0xec	-0.05958806
72	0x27	0.116196714
73	0xeb	-0.06256746
74	0xf4	-0.035752833
75	0x32	0.14897014
76	0xbf	-0.19366118
77	0xed	-0.056608655
78	0x2b	0.12811433
79	0xf3	-0.038732238
80	0xce	-0.14897014
81	0xce	-0.14897014
82	0x34	0.15492895
83	0x0b	0.03277343
84	0x0e	0.04171164
85	0x00	0.0
86	0xb9	-0.2115376
87	0xd5	-0.12811433
88	0xf5	-0.03277343
89	0x26	0.11321731
90	0xd2	-0.13705254
91	0xcb	-0.15790835
92	0xd5	-0.12811433
93	0xe7	-0.07448507
94	0x1e	0.08938209
95	0xd4	-0.13109373
96	0xbf	-0.19366118
97	0x11	0.050649848
98	0x1c	0.08342328
99	0xde	-0.101299696
100	0xdc	-0.107258506
101	0xc8	-0.16684656
102	0x1c	0.08342328
103	0xec	-0.05958806
104	0xf6	-0.02979403
105	0xb9	-0.2115376
106	0xce	-0.14897014
107	0x1c	0.08342328
108	0xff	-0.002979403
109	0xdf	-0.0983203
110	0xcc	-0.15492895
111	0x04	0.011917612
112	0xe2	-0.08938209
113	0xbb	-0.2055788
114	0x40	0.19068179
115	0x12	0.053629253
116	0x1a	0.077464476
117	0xf6	-0.02979403
118	0xf3	-0.038732238
119	0x38	0.16684656
120	0x35	0.15790835
121	0x2b	0.12811433
122	0x00	0.0
123	0x1a	0.077464476
124	0x03	0.008938208
125	0xf9	-0.02085582
126	0x32	0.14897014
127	0x1b	0.08044388
128	0x2b	0.12811433
129	0x24	0.107258506
130	0xc4	-0.17876418
131	0x49	0.21749641
132	0x6b	0.3187961
133	0xbf	-0.19366118
134	0x56	0.25622866
135	0xe0	-0.09534089
136	0x06	0.017876416
137	0x22	0.101299696
138	0x19	0.07448507
139	0x49	0.21749641
140	0x03	0.008938208
141	0x00	0.0
142	0x35	0.15790835
143	0x47	0.2115376
144	0x39	0.16982597
145	0xdd	-0.1042791
146	0xd0	-0.14301133
147	0x3d	0.18174358
148	0x1f	0.09236149
149	0xce	-0.14897014
150	0xef	-0.050649848
151	0xeb	-0.06256746
152	0x0b	0.03277343
153	0x9f	-0.2890021
154	0x1a	0.077464476
155	0x06	0.017876416
156	0xf3	-0.038732238
157	0xff	-0.002979403
158	0x07	0.02085582
159	0x08	0.023835223
160	0xda	-0.11321731
161	0x3c	0.17876418
162	0xc9	-0.16386716
163	0xbd	-0.19962
164	0x24	0.107258506
165	0x2d	0.13407312
166	0x05	0.014897015
167	0xe4	-0.08342328
168	0x46	0.2085582
169	0xc7	-0.16982597
170	0x1f	0.09236149
171	0x1e	0.08938209
172	0x55	0.25324926
173	0x4d	0.22941402
174	0x29	0.12215552
175	0x06	0.017876416
176	0x07	0.02085582
177	0x27	0.116196714
178	0x37	0.16386716
179	0x12	0.053629253
180	0xfc	-0.011917612
181	0x11	0.050649848
182	0x01	0.002979403
183	0x23	0.1042791
184	0xe7	-0.07448507
185	0xd8	-0.11917612
186	0xb6	-0.22047581
187	0x10	0.047670446
188	0x0e	0.04171164
189	0x31	0.14599074
190	0x42	0.1966406
191	0x23	0.1042791
192	0x1c	0.08342328
193	0xe4	-0.08342328
194	0x22	0.101299696
195	0xfa	-0.017876416
196	0x02	0.005958806
197	0xf2	-0.04171164
198	0xc7	-0.16982597
199	0xd2	-0.13705254
200	0xfa	-0.017876416
201	0x25	0.110237904
202	0x1a	0.077464476
203	0xac	-0.25026983
204	0xd6	-0.12513492
205	0xf0	-0.047670446
206	0x27	0.116196714
207	0x18	0.071505666
208	0x6b	0.3187961
209	0x1e	0.08938209
210	0xe4	-0.08342328
211	0x2b	0.12811433
212	0xac	-0.25026983
213	0x1b	0.08044388
214	0xe3	-0.086402684
215	0x08	0.023835223
216	0xcf	-0.14599074
217	0xf8	-0.023835223
218	0x05	0.014897015
219	0x11	0.050649848
220	0xfe	-0.005958806
221	0x2d	0.13407312
222	0x05	0.014897015
223	0x25	0.110237904
224	0xec	-0.05958806
225	0x01	0.002979403
226	0xd2	-0.13705254
227	0x41	0.19366118
228	0xe8	-0.071505666
229	0x18	0.071505666
230	0xc2	-0.18472297
231	0x3d	0.18174358
232	0x25	0.110237904
233	0xbd	-0.19962
234	0x12	0.053629253
235	0xc6	-0.17280537
236	0x20	0.09534089
237	0x24	0.107258506
238	0x0b	0.03277343
239	0xf6	-0.02979403
240	0x24	0.107258506
241	0x47	0.2115376
242	0x2f	0.14003193
243	0xf4	-0.035752833
244	0xa7	-0.26516685
245	0x08	0.023835223
246	0x51	0.24133164
247	0x16	0.06554686
248	0xec	-0.05958806
249	0xc0	-0.19068179
250	0xd9	-0.116196714
251	0x17	0.06852627
252	0xff	-0.002979403
253	0xca	-0.16088776
254	0x29	0.12215552
255	0x00	0.0

sequential_2/bidirectional_2/backward_lstm_6/Read_2/ReadVariableOp1 f4 [1024]
0	0x3dd2ca8c	0.10292539
1	0x3ddeee99	0.10885353
2	0x3da2a983	0.07942488
3	0x3dc1abcd	0.094565965
4	0x3dd8b674	0.10581675
5	0x3de500cb	0.11181792
6	0x3d534544	0.05157973
7	0x3e05bf8d	0.13061352
8	0x3dbb53e6	0.09146862
9	0x3dd63cc2	0.104608074
10	0x3d953e20	0.0728724
11	0x3e024eb1	0.12725331
12	0x3e0179f1	0.12644173
13	0x3dffb674	0.12485972
14	0x3ddb426c	0.10706028
15	0x3da9353e	0.08262108
16	0x3dd85958	0.10563916
17	0x3dfc27fd	0.12312315
18	0x3da72029	0.08160431
19	0x3dfaf35d	0.12253449
20	0x3e12bc7e	0.14329717
21	0x3dc2ca5c	0.09511253
22	0x3e087723	0.13326697
23	0x3d81d7eb	0.06340011
24	0x3dd7c25d	0.10535119
25	0x3daf13f8	0.085487306
26	0x3dc76614	0.09736267
27	0x3d98d58e	0.07462607
28	0x3dea3d9c	0.11437532
29	0x3df84cf6	0.12124054
30	0x3d9d9d8e	0.07696067
31	0x3e0d8a47	0.1382228
32	0x3da41aa1	0.080128916
33	0x3e189c37	0.14903341
34	0x3db1e038	0.086853445
35	0x3d8a0546	0.06739287
36	0x3e01f384	0.1269055
37	0x3e4357d9	0.1907648
38	0x3ddd1874	0.1079568
39	0x3dca8f2e	0.098905906
40	0x3ddf1f57	0.108946495
41	0x3df8c2bc	0.12146518
42	0x3dee7fd7	0.11645477
43	0x3dea8350	0.11450827
44	0x3dbeab09	0.09309966
45	0x3e168412	0.14698818
46	0x3ddcd648	0.107830584
47	0x3e0e1fc9	0.13879313
48	0x3dda481b	0.10658284
49	0x3e16dd4d	0.14732857
50	0x3dd1ff9d	0.102538325
51	0x3da1e0c1	0.079041965
52	0x3dbd7f89	0.09252841
53	0x3e0c2d29	0.13689102
54	0x3e82acaa	0.25522357
55	0x3dd52703	0.104078315
56	0x3e25add6	0.16179594
57	0x3e0d6297	0.1380714
58	0x3e1ca7d2	0.15298393
59	0x3d91d015	0.071197666
60	0x3dfdc747	0.12391525
61	0x3dfd77a9	0.12376339
62	0x3ddd2c38	0.1079945
63	0x3de7d1ec	0.11319336
64	0x3dd41117	0.10354822
65	0x3e002fc4	0.12518221
66	0x3e16ad6d	0.14714594
67	0x3e0a8d09	0.13530363
68	0x3dc2dd0d	0.09514818
69	0x3e035924	0.12826973
70	0x3dfbfe1c	0.12304327
71	0x3defec9c	0.117150515
72	0x3e71e113	0.23621015
73	0x3e03a78a	0.1285688
74	0x3d7ef9f5	0.062250096
75	0x3e0d885e	0.13821551
76	0x3e050811	0.12991358
77	0x3dba0df0	0.090846896
78	0x3dc82a94	0.09773746
79	0x3e0f8cbe	0.14018533
80	0x3e186f6a	0.14886251
81	0x3de2b52f	0.11069714
82	0x3df6ea83	0.12056448
83	0x3da9a769	0.08283884
84	0x3ddd0062	0.10791089
85	0x3e12d3c3	0.14338593
86	0x3da3dd0c	0.08001146
87	0x3e222b3b	0.15836804
88	0x3dc5dd0e	0.096613035
89	0x3ddf969a	0.10917397
90	0x3e07fff5	0.13281234
91	0x3e1d8975	0.15384467
92	0x3e0d9120	0.13824892
93	0x3e5f9a7b	0.21836273
94	0x3e044d0a	0.12920013
95	0x3dba2168	0.09088403
96	0x3dd2eb43	0.10298779
97	0x3da671e0	0.08127189
98	0x3dfcee8c	0.12350187
99	0x3dd8701c	0.10568258
100	0x3dde4e4d	0.108547784
101	0x3e1f975d	0.15585084
102	0x3decfc20	0.115715265
103	0x3e212066	0.15735015
104	0x3ddc109a	0.10745354
105	0x3e0c7ded	0.13719912
106	0x3e00142d	0.12507696
107	0x3dd1b66e	0.10239874
108	0x3e07fdb8	0.1328038
109	0x3dec2724	0.11530903
110	0x3ddfd397	0.109290294
111	0x3dcc7f98	0.09985274
112	0x3de5bc08	0.11217505
113	0x3df89c70	0.12139213
114	0x3e24a4c1	0.16078474
115	0x3e10d4d6	0.1414369
116	0x3e0154ae	0.12629959
117	0x3e1b206d	0.15149088
118	0x3d968df1	0.07351292
119	0x3dee443b	0.11634108
120	0x3d79191b	0.060814958
121	0x3df42457	0.11920994
122	0x3dcd001b	0.10009786
123	0x3de95600	0.11393356
124	0x3dbdf145	0.09274534
125	0x3d93ff7c	0.07226464
126	0x3dbec136	0.09314196
127	0x3daf4afa	0.085592225
128	0x3de6dcd1	0.11272586
129	0x3da2af20	0.07943559
130	0x3daa9e3f	0.08330964
131	0x3db04a6f	0.08607947
132	0x3d91c1f1	0.071170695
133	0x3df4e7d6	0.11958282
134	0x3e03b129	0.1286055
135	0x3dd9b6b1	0.10630549
136	0x3db8b503	0.090189
137	0x3da6e1a3	0.081485055
138	0x3e512ef8	0.20428073
139	0x3db5e2a1	0.08881117
140	0x3e0fd281	0.14045145
141	0x3dd99e9a	0.10625954
142	0x3de8137f	0.113318436
143	0x3e139ba5	0.14414842
144	0x3deb0cd3	0.114770554
145	0x3dae5b48	0.08513504
146	0x3d8e4ab3	0.069478415
147	0x3db82d58	0.08993024
148	0x3de60656	0.11231677
149	0x3dd041ff	0.10168838
150	0x3dce5e54	0.100765854
151	0x3dec4db0	0.11538255
152	0x3e3e8694	0.18606025
153	0x3e0d7e1c	0.13817638
154	0x3defeb0a	0.11714752
155	0x3e1ec795	0.15505822
156	0x3e03d33f	0.12873553
157	0x3de6a534	0.11261979
158	0x3e0db482	0.1383839
159	0x3d975c1b	0.073906146
160	0x3e25766e	0.16158459
161	0x3d9fa911	0.07795919
162	0x3e247ea1	0.1606393
163	0x3ddc17f4	0.10746756
164	0x3ddd9102	0.10818674
165	0x3df6ced3	0.12051167
166	0x3e13c8ee	0.14432117
167	0x3d8e53f3	0.06949606
168	0x3e283107	0.16424952
169	0x3e135a55	0.14389928
170	0x3e6cb6e9	0.2311665
171	0x3dcc067d	0.09962175
172	0x3e149c5a	0.14512768
173	0x3da1a754	0.078932434
174	0x3dfc2f9f	0.123137705
175	0x3df73bd8	0.12071961
176	0x3da912ef	0.082555644
177	0x3d8f6d17	0.07003229
178	0x3d9810c6	0.07425074
179	0x3dc94e23	0.098293565
180	0x3dd7a0e6	0.10528736
181	0x3e161bfa	0.1465911
182	0x3df1036d	0.117682315
183	0x3df295c2	0.1184497
184	0x3e0e3043	0.13885598
185	0x3ddf087c	0.1089029
186	0x3e2b0776	0.16702065
187	0x3e021b00	0.12705612
188	0x3dcb03ae	0.09912811
189	0x3dfa8d2d	0.122339584
190	0x3dfcf736	0.12351839
191	0x3e13fcef	0.14451955
192	0x3dc7c1a3	0.0975373
193	0x3de8b2bc	0.11362216
194	0x3e06e9c4	0.13175112
195	0x3de44fba	0.11148019
196	0x3dfa13e9	0.12210829
197	0x3e196b62	0.1498237
198	0x3e02a8f0	0.12759757
199	0x3e1377fa	0.14401236
200	0x3da3afd3	0.0799252
201	0x3de09857	0.109665565
202	0x3dbfb027	0.0935977
203	0x3df52547	0.11970001
204	0x3d83ed98	0.06441802
205	0x3e23c0dc	0.15991539
206	0x3d947e1a	0.072506145
207	0x3db84223	0.089969896
208	0x3ddb309d	0.107026316
209	0x3e0d3b4a	0.13792148
210	0x3dd3ab25	0.103353776
211	0x3de2dce0	0.11077285
212	0x3d9ee064	0.07757643
213	0x3df6244d	0.120186426
214	0x3dda75f7	0.10667031
215	0x3e1dce42	0.15410712
216	0x3e11cdf8	0.14238727
217	0x3e169e0f	0.14708732
218	0x3dea816c	0.114504665
219	0x3e0daa96	0.13834605
220	0x3e054b64	0.1301704
221	0x3de0d863	0.109787725
222	0x3da240be	0.07922505
223	0x3dfec967	0.12440758
224	0x3e1b5dce	0.15172502
225	0x3df74c4e	0.12075101
226	0x3e01b77c	0.1266765
227	0x3dafd3ff	0.08585357
228	0x3e06dc3f	0.13169955
229	0x3e1f4ae3	0.15555911
230	0x3db0c99f	0.08632206
231	0x3d7c32be	0.06157183
232	0x3e0142c9	0.12623133
233	0x3e044c8f	0.1291983
234	0x3e04a61e	0.12953994
235	0x3dcf3fe3	0.10119607
236	0x3e25448e	0.16139433
237	0x3df8a91f	0.12141632
238	0x3dba3474	0.09092036
239	0x3e0d76f5	0.1381491
240	0x3d9fe5de	0.078075156
241	0x3dc92a17	0.09822481
242	0x3e019dcd	0.12657852
243	0x3e3ce680	0.18447304
244	0x3db03471	0.086037524
245	0x3dbfa6cd	0.093579866
246	0x3ddfc59b	0.10926362
247	0x3dd7d933	0.10539474
248	0x3e0baaf3	0.1363943
249	0x3e2cbb08	0.16868222
250	0x3e789d14	0.2427867
251	0x3e1a42b5	0.15064509
252	0x3e0834fb	0.1330146
253	0x3ddc76fb	0.10764881
254	0x3dda75a5	0.1066697
255	0x3e0cf58c	0.13765544
